Input dataset:
 data/pyg/ukc2021-proc20251009001rs__pygdata.pth

Config:

random_seed = 72770
max_epochs = 1500
min_epochs = 600
earlystop_delta = 0.0
earlystop_patience = 10


Loader type: <class 'torch_geometric.loader.neighbor_loader.NeighborLoader'>




AEMoE architecture:
AutoencoderMoSE(
  (encoder): MLP(
    (mlp): Sequential(
      (0): Linear(in_features=171, out_features=192, bias=False)
      (1): BatchNorm1d(192, eps=1e-05, momentum=0.1, affine=True, track_running_stats=True)
      (2): LeakyReLU(negative_slope=0.01)
      (3): Linear(in_features=192, out_features=128, bias=False)
      (4): BatchNorm1d(128, eps=1e-05, momentum=0.1, affine=True, track_running_stats=True)
      (5): LeakyReLU(negative_slope=0.01)
      (6): Linear(in_features=128, out_features=96, bias=False)
      (7): BatchNorm1d(96, eps=1e-05, momentum=0.1, affine=True, track_running_stats=True)
      (8): LeakyReLU(negative_slope=0.01)
      (9): Linear(in_features=96, out_features=64, bias=True)
    )
  )
  (gating_network): SpatialGatingNetwork(
    (gconvs): Sequential(
      (0): SAGEConv(171, 128, aggr=MeanAggregation())
      (1): BatchNorm1d(128, eps=1e-05, momentum=0.1, affine=True, track_running_stats=True)
      (2): LeakyReLU(negative_slope=0.01)
    )
    (group_mlp): MLP(
      (mlp): Sequential(
        (0): Linear(in_features=128, out_features=64, bias=False)
        (1): BatchNorm1d(64, eps=1e-05, momentum=0.1, affine=True, track_running_stats=True)
        (2): LeakyReLU(negative_slope=0.01)
        (3): Linear(in_features=64, out_features=32, bias=False)
        (4): BatchNorm1d(32, eps=1e-05, momentum=0.1, affine=True, track_running_stats=True)
        (5): LeakyReLU(negative_slope=0.01)
        (6): Linear(in_features=32, out_features=7, bias=True)
      )
    )
    (gr_exp_mlp): ModuleList(
      (0-6): 7 x MLP(
        (mlp): Sequential(
          (0): Linear(in_features=64, out_features=32, bias=False)
          (1): BatchNorm1d(32, eps=1e-05, momentum=0.1, affine=True, track_running_stats=True)
          (2): LeakyReLU(negative_slope=0.01)
          (3): Linear(in_features=32, out_features=16, bias=False)
          (4): BatchNorm1d(16, eps=1e-05, momentum=0.1, affine=True, track_running_stats=True)
          (5): LeakyReLU(negative_slope=0.01)
          (6): Linear(in_features=16, out_features=3, bias=True)
        )
      )
    )
  )
  (moe_decoder): MoEDecoder(
    (experts): ModuleList(
      (0-20): 21 x MLP(
        (mlp): Sequential(
          (0): Linear(in_features=64, out_features=96, bias=False)
          (1): BatchNorm1d(96, eps=1e-05, momentum=0.1, affine=True, track_running_stats=True)
          (2): LeakyReLU(negative_slope=0.01)
          (3): Linear(in_features=96, out_features=128, bias=False)
          (4): BatchNorm1d(128, eps=1e-05, momentum=0.1, affine=True, track_running_stats=True)
          (5): LeakyReLU(negative_slope=0.01)
          (6): Linear(in_features=128, out_features=192, bias=False)
          (7): BatchNorm1d(192, eps=1e-05, momentum=0.1, affine=True, track_running_stats=True)
          (8): LeakyReLU(negative_slope=0.01)
          (9): Linear(in_features=192, out_features=171, bias=True)
        )
      )
    )
  )
)

AutoencoderMoE hyperparameters:
	input_dim = 171
	encoder_dims = [192, 128, 96, 64]
	gating_dims = [[64, 32], [32, 16]]
	gating_tau_ann_start_val = 5.0
	gating_tau_ann_end_val = 1.0
	gating_tau_ann_start_at = 11220
	gating_tau_ann_len_at = 112200
	gating_hard_group = True
	gating_hard_group_start_at = 187000
	gating_hard_expert = False
…
